…
('bound_f1_loss', <function bound_f1_loss at 0x7f4e5032a310>)



===== Model:

 GCNSiamese2(
  (conv1): LEConv(38, 64)
  (conv2): LEConv(64, 64)
  (conv_out): LEConv(64, 64)
  (norm1): BatchNorm(64)
  (norm2): BatchNorm(64)
  (norm_out): BatchNorm(64)
  (conv3): LEConv(64, 64)
  (conv4): LEConv(64, 64)
  (conv5): LEConv(64, 64)
  (norm3): BatchNorm(64)
  (norm4): BatchNorm(64)
  (norm5): BatchNorm(64)
  (conv6): LEConv(64, 64)
  (conv7): LEConv(64, 64)
  (conv8): LEConv(64, 64)
  (norm6): BatchNorm(64)
  (norm7): BatchNorm(64)
  (norm8): BatchNorm(64)
  (pool): GlobalAttentionSelect(gate_nn=Sequential(
    (0): Linear(in_features=64, out_features=32, bias=True)
    (1): ReLU()
    (2): Linear(in_features=32, out_features=32, bias=True)
    (3): ReLU()
    (4): Linear(in_features=32, out_features=32, bias=True)
    (5): ReLU()
    (6): Linear(in_features=32, out_features=32, bias=True)
    (7): ReLU()
    (8): Linear(in_features=32, out_features=32, bias=True)
    (9): ReLU()
    (10): Linear(in_features=32, out_features=32, bias=True)
    (11): ReLU()
    (12): Linear(in_features=32, out_features=32, bias=True)
    (13): ReLU()
    (14): Linear(in_features=32, out_features=1, bias=True)
    (15): ReLU()
  ), nn=None)
  (final_out): Sequential(
    (0): Linear(in_features=64, out_features=64, bias=True)
    (1): ReLU()
    (2): Linear(in_features=64, out_features=64, bias=True)
    (3): ReLU()
    (4): Linear(in_features=64, out_features=64, bias=True)
    (5): ReLU()
    (6): Linear(in_features=64, out_features=1, bias=True)
  )
)

===== Optimizer:
Adam (
Parameter Group 0
    amsgrad: False
    betas: (0.9, 0.999)
    eps: 1e-08
    lr: 0.001
    weight_decay: 0
)

 ===== Train model. Execute time was:
Minutes: 946.91
Seconds: 56814.51

 ===== Test last_model. Execute time was:
Minutes: 0.20
Seconds: 12.19

 ===== Test best_model. Execute time was:
Minutes: 0.20
Seconds: 12.11
…
