…
('double_soft_f1_loss', <function double_soft_f1_loss at 0x7f2102a43a60>)
('bound_f1_loss', <function bound_f1_loss at 0x7f2102a43b80>)



===== Model:

 SiameseJoin(
  (embeddings): ModuleList(
    (0): GCNSiamese2(
      (conv1): LEConv(38, 64)
      (conv2): LEConv(64, 64)
      (conv_out): LEConv(64, 64)
      (norm1): BatchNorm(64)
      (norm2): BatchNorm(64)
      (norm_out): BatchNorm(64)
      (conv3): LEConv(64, 64)
      (conv4): LEConv(64, 64)
      (conv5): LEConv(64, 64)
      (norm3): BatchNorm(64)
      (norm4): BatchNorm(64)
      (norm5): BatchNorm(64)
      (pool): GlobalAttentionSelect(gate_nn=Sequential(
        (0): Linear(in_features=64, out_features=32, bias=True)
        (1): ReLU()
        (2): Linear(in_features=32, out_features=32, bias=True)
        (3): ReLU()
        (4): Linear(in_features=32, out_features=32, bias=True)
        (5): ReLU()
        (6): Linear(in_features=32, out_features=1, bias=True)
        (7): ReLU()
      ), nn=None)
      (text_feat_layer): Identity()
      (final_out): None
    )
    (1): GCNSiamese2(
      (conv1): LEConv(38, 64)
      (conv2): LEConv(64, 64)
      (conv_out): LEConv(64, 64)
      (norm1): BatchNorm(64)
      (norm2): BatchNorm(64)
      (norm_out): BatchNorm(64)
      (conv3): LEConv(64, 64)
      (conv4): LEConv(64, 64)
      (conv5): LEConv(64, 64)
      (norm3): BatchNorm(64)
      (norm4): BatchNorm(64)
      (norm5): BatchNorm(64)
      (pool): GlobalAttentionSelect(gate_nn=Sequential(
        (0): Linear(in_features=64, out_features=32, bias=True)
        (1): ReLU()
        (2): Linear(in_features=32, out_features=32, bias=True)
        (3): ReLU()
        (4): Linear(in_features=32, out_features=32, bias=True)
        (5): ReLU()
        (6): Linear(in_features=32, out_features=1, bias=True)
        (7): ReLU()
      ), nn=None)
      (text_feat_layer): Identity()
      (final_out): None
    )
    (2): GCNSiamese2(
      (conv1): LEConv(38, 64)
      (conv2): LEConv(64, 64)
      (conv_out): LEConv(64, 64)
      (norm1): BatchNorm(64)
      (norm2): BatchNorm(64)
      (norm_out): BatchNorm(64)
      (conv3): LEConv(64, 64)
      (conv4): LEConv(64, 64)
      (conv5): LEConv(64, 64)
      (norm3): BatchNorm(64)
      (norm4): BatchNorm(64)
      (norm5): BatchNorm(64)
      (pool): GlobalAttentionSelect(gate_nn=Sequential(
        (0): Linear(in_features=64, out_features=32, bias=True)
        (1): ReLU()
        (2): Linear(in_features=32, out_features=32, bias=True)
        (3): ReLU()
        (4): Linear(in_features=32, out_features=32, bias=True)
        (5): ReLU()
        (6): Linear(in_features=32, out_features=1, bias=True)
        (7): ReLU()
      ), nn=None)
      (final_out): None
    )
    (3): GCNSiamese2(
      (conv1): LEConv(38, 64)
      (conv2): LEConv(64, 64)
      (conv_out): LEConv(64, 64)
      (norm1): BatchNorm(64)
      (norm2): BatchNorm(64)
      (norm_out): BatchNorm(64)
      (conv3): LEConv(64, 64)
      (conv4): LEConv(64, 64)
      (conv5): LEConv(64, 64)
      (norm3): BatchNorm(64)
      (norm4): BatchNorm(64)
      (norm5): BatchNorm(64)
      (pool): GlobalAttentionSelect(gate_nn=Sequential(
        (0): Linear(in_features=64, out_features=32, bias=True)
        (1): ReLU()
        (2): Linear(in_features=32, out_features=32, bias=True)
        (3): ReLU()
        (4): Linear(in_features=32, out_features=32, bias=True)
        (5): ReLU()
        (6): Linear(in_features=32, out_features=1, bias=True)
        (7): ReLU()
      ), nn=None)
      (text_feat_layer): Identity()
      (final_out): None
    )
    (4): Sequential(
      (0): Linear(in_features=191, out_features=64, bias=True)
      (1): ReLU()
      (2): Linear(in_features=64, out_features=191, bias=True)
    )
  )
  (final_out): Sequential(
    (0): Linear(in_features=447, out_features=64, bias=True)
    (1): ReLU()
    (2): Linear(in_features=64, out_features=64, bias=True)
    (3): ReLU()
    (4): Linear(in_features=64, out_features=64, bias=True)
    (5): ReLU()
    (6): Linear(in_features=64, out_features=64, bias=True)
    (7): ReLU()
    (8): Linear(in_features=64, out_features=1, bias=True)
  )
)

===== Optimizer:
Adam (
Parameter Group 0
    amsgrad: False
    betas: (0.9, 0.999)
    eps: 1e-08
    lr: 0.0005
    weight_decay: 0
)
